best_loss.onnx (onnx, 19582 bytes, 10 tensors)

conv1.weight f4 [32, 6, 6]
00000000: 1ceb 82bd 3743 d2bb 881a 21bd d652 90bd
00000010: bf83 45be e673 02bd de0e 98bd dff6 d5bd
00000020: 3511 51be 3e92 0c3d e3d8 3a3e 5963 883e
00000030: 470b 023e aa6a 19be 9aef d3bd b18b 043e
00000040: 644a 1dbd 4fcd 863c f7b1 25be ea08 e1bd
00000050: 9b43 85bd 62ca 343e 358d 113e e68d 7b3e
00000060: 06be eb3c b6d0 863d 0f16 e23d 11e6 043e
00000070: f1e0 9f3d b402 66bc 8bf9 c83d e6a9 853d
00000080: db26 633d 1fbd c13d 23b2 083e 668a 3e3d
00000090: 6880 88bd 77af 4abd ec79 a73c 0c95 a83c
000000a0: 1669 623e 4c73 663c 10df 073d 7749 a43c
000000b0: a670 293d 460d 4bbe 823a 24bd 0d69 b4bd
000000c0: 77a4 49bd 4afa e23a 92f5 30be 337b 553d
000000d0: f960 e43d 4ade 013e 4adf b63c 8040 ebbd
000000e0: 9af6 343d 8962 2ebe 38aa cf3c c945 f2bc
000000f0: bcdd af3c 406f 60bd 2fff 06bc cf41 a0bd
00000100: 0406 343d a7f7 7a3c 5b4b 32bd 5e45 cd3d
00000110: 8287 dcbd ccb6 09bd 2250 8cbd 3a37 d4bc
00000120: 9ea1 92be afa3 f2bd ff48 e83d 6dcd 143e
00000130: dafd a9bd 9c97 b03d f185 d93c a9e3 85bd
00000140: b86c a9bd e241 b2bd 4388 4ebd 5278 223e
00000150: f387 c4bd de2f eabd 3f1a 013d 7cbe 223c
00000160: c90d b93d 9f29 b53d dad4 f2bc ea70 3fbe
00000170: 8549 ea3c 949e 923d ed53 d2bb 4a7a 673e
00000180: 959e 4c3d b420 4c3e 0214 183e a5a9 9bbd
00000190: ad41 32be f789 12be 4eb7 b6bd f537 e2bc
000001a0: 9f4b c5bc 16e2 56bd b69b e33d b8e3 d53d
000001b0: 1da2 1f3d 121e 2bbe 0f4b 6fbd c392 9abd
000001c0: e038 64bc d1e0 b63c 7997 12be ded2 e6bd
000001d0: 24d4 843c a279 a63d a20a 45bd c601 303c
000001e0: eaa0 803d 00bc 193e 77f5 9bbd 4ee3 533d
000001f0: dd24 19be 720f 06bd 7d9d 313e 2943 c23d
00000200: ab3f 983d 8fda 423e 1c40 873e 8a0b 5cbd
00000210: 540b d83c 4da4 043e 3912 00be 5784 4bbe
00000220: 981d 633e 592f d5bc 499d a73d a854 ed3c
00000230: 5250 bd3d e706 dcbc 6d29 f2bb b8a5 083e
00000240: 71a6 813d 3ac2 c43c 4f20 ce3d d4c2 aabc
00000250: 2b8a 1dbe 73e0 f23c 0196 52bb 1165 e83e
00000260: a2d5 0dbd 13dc 54bd 316a 16be afbc febd
00000270: eff7 14bb ba6b 003e 4ec7 343d eb77 e8bc
00000280: 6d79 ab3c 7b4b 09be 3aa3 703d a2e6 853d
00000290: 7587 98bd 1ca5 8bbd c707 ffbd 49fc 70be
000002a0: 7ed6 143d 5a78 a23d d9cb cf3d e15f b33d
000002b0: 4438 42bd 23f6 b3bc 7365 70bd 0467 8bbd
000002c0: 5d3e 543c fa6f 003b df9a 9dbd ba82 80bc
000002d0: 9222 9d3c 0ae8 763d 0bba 2cbd ff48 db3c
000002e0: 4d87 0bbe f5b1 0fbc 433a 6f3c 40b0 5b3d
000002f0: 821c 2c3d 4885 10bd eead 66bc d252 343e
00000300: 8bb6 bf3d e2f9 d53a 030f b93d 387e 753d
00000310: b51c cebc bdb2 a0bd 8ed6 2c3d 3b15 a13d
00000320: 0de5 a7bd ae02 b4bd 771a 383c 61c5 10bd
00000330: 46f0 bf3d 5a83 c7bd 1140 723d b525 ba3d
00000340: c4f5 9bbd 3da7 babc 67ea 24be 3a1e cebd
00000350: deda 8c3e 51d7 883e 3f1d 96bd ad7b 96be
00000360: ebf7 883d 0fd2 8d3c 1669 013b 7fcb 1bbe
00000370: ae31 673c e859 adbd b4f1 81bc 9e73 2d3e
00000380: f572 a53c 9d78 10bd c0ba ddbc 611a a5bd
00000390: 09e3 163d c6e3 a2bd 1afe d73d 929c ce3d
000003a0: 4309 3dbd 1436 b2bd 50d6 ba3d b695 47bd
000003b0: 6808 eebc c9f6 57bd 0e97 383a 3d9b 8abd
000003c0: 0f26 1ebd c0c4 a03d 4bf8 8cbd 4c2b 7bbd
000003d0: 1377 1d3e fed8 8fbc 7f61 e83d 6c7b 193d
000003e0: 87c3 6c3d 789e bdbd 6e6a 15be 9fb7 26bd
000003f0: 88c2 c23d 7e24 c0bd 0370 05be 0499 0b3e
-0.063925 -0.006416704 -0.039331943 -0.0704705 -0.19288538 -0.03184881 -0.07424711 -0.104474775
-0.2041672 0.034319155 0.18246798 0.26638296 0.12699614 -0.14982095 -0.10348435 0.12943913
-0.038401023 0.01645532 -0.1618117 -0.10988028 -0.06507035 0.17655328 0.14214022 0.24565849
0.028777134 0.06582777 0.110393636 0.12978388 0.07806576 -0.01403873 0.098132215 0.06526546
0.055456977 0.094599 0.13349204 0.046518706 -0.066651165 -0.049483743 0.020443879 0.020578884
0.221104 0.014065575 0.033171713 0.020054562 0.041367196 -0.19829282 -0.04009486 -0.08809099
-0.04922911 0.0017317024 -0.17281178 0.052119445 0.111513086 0.12682453 0.02232327 -0.11486912
0.04418049 -0.17029776 0.025349721 -0.029574292 0.021468036 -0.054793596 -0.008239551 -0.07825052
0.04395105 0.015317834 -0.043528896 0.10022996 -0.107680336 -0.033621594 -0.068512216 -0.02590524
-0.2863893 -0.118476264 0.11342048 0.14531489 -0.083003715 0.08622667 0.026553126 -0.06537563
-0.082726896 -0.087039724 -0.050422918 0.15866211 -0.09596243 -0.11434911 0.03151917 0.00993311
0.090358324 0.08845829 -0.029642511 -0.18695417 0.02859951 0.071591526 -0.006418696 0.22605243
0.049955923 0.1993435 0.14851382 -0.076007165 -0.17407866 -0.14310442 -0.08921681 -0.027614573
-0.02408391 -0.052461706 0.11113684 0.104438245 0.038972963 -0.1671069 -0.05842119 -0.07547524
-0.013929576 0.022323998 -0.14315595 -0.112706885 0.016214438 0.08128668 -0.048105843 0.01074261
0.06280692 0.15013123 -0.07615178 0.051730447 -0.14955468 -0.032729574 0.17345233 0.09485466
0.07434019 0.19028686 0.264161 -0.053721942 0.02637259 0.12953301 -0.12506951 -0.19874702
0.22179258 -0.026023554 0.08184297 0.028971031 0.092438355 -0.02685876 -0.0073901922 0.13344467
0.06330574 0.024018396 0.10064756 -0.020844854 -0.15384738 0.029648041 -0.0032132866 0.45389608
-0.034627564 -0.05196769 -0.14688946 -0.12438332 -0.0022730788 0.12541094 0.044135384 -0.028377494
0.020931924 -0.134077 0.058749415 0.0653813 -0.074477114 -0.068186015 -0.12452655 -0.23533739
0.03633737 0.079331115 0.10146303 0.08758522 -0.04741694 -0.021967953 -0.0586905 -0.06806758
0.012954322 0.0019597993 -0.07695555 -0.015687335 0.019181523 0.060279883 -0.042169612 0.026768206
-0.13625832 -0.008770456 0.014601293 0.053634882 0.042019375 -0.035283357 -0.014079554 0.17609718
0.09360989 0.0016325081 0.090360664 0.059934825 -0.025160173 -0.078465916 0.042196803 0.078653775
-0.08197985 -0.087895736 0.011236778 -0.035344485 0.093720004 -0.0974185 0.05914313 0.09089223
-0.076152354 -0.022784824 -0.16105042 -0.10064359 0.27510732 0.26726773 -0.07329797 -0.29391232
0.066879116 0.017312078 0.0019746474 -0.15214346 0.014110966 -0.08464414 -0.015862323 0.16938636
0.020196417 -0.035271276 -0.027066588 -0.08061672 0.03683761 -0.079536006 0.10546513 0.10088457
-0.04615141 -0.08701721 0.09122908 -0.04872676 -0.029056743 -0.052725587 0.0007041552 -0.067678906
-0.038610514 0.07850027 -0.068832956 -0.061320588 0.15377454 -0.017559525 0.11346721 0.03747122
0.057803657 -0.09258741 -0.14591381 -0.04070246 0.0950976 -0.0938196 -0.1303101 0.1363259

conv1.bias f4 [32]
00000000: bd7f 5b3f 4246 9f3d dbf8 84bf 27cd aebd
00000010: 61c4 7f3f b2fc e6be f73b 2cbf 4184 24bf
00000020: f71d b03e 107a 2dbf c060 00be 600f 893e
00000030: 52fb 9cbd 20b2 66bf 100b d7be 2727 453f
00000040: 693f 5d3f 8c68 503f 1d29 1fbf fa90 97bf
00000050: 40ea 2ebf 9724 82bf 11a9 71bf a5c4 9e3f
00000060: 7ab7 423f ad25 2cbf 537f 24bf 00dc 0abf
00000070: d808 a33e f39f 43bc 84d4 01bf c0ff b33d
0.8574179 0.077770725 -1.0388445 -0.085352235 0.99909025 -0.45114666 -0.67279 -0.64264303
0.3439786 -0.6776438 -0.12536907 0.26769543 -0.07665123 -0.9011555 -0.42000628 0.77012867
0.8642488 0.81409526 -0.6217211 -1.1841118 -0.6832619 -1.0167416 -0.943986 1.2403761
0.76061213 -0.6724499 -0.6425678 -0.54241943 0.31842685 -0.01193999 -0.507149 0.08789015

conv2.weight f4 [12, 32, 7]
00000000: 4843 f03d 111b b73d 95c5 1e3e 66a8 653d
00000010: 11be 1f3d c4a1 0a3e b654 a93d 33ef 1f3c
00000020: 100d c7bb 1d82 b3ba 3865 20be 4360 8c3c
00000030: 664c 59bd c73c 353d 4c53 bebd 6083 e5bd
00000040: 0597 953d 4c31 aabd a1fe 753d bd98 263d
00000050: b529 f0bc 4d0b 96bd ce18 91bc 4694 d33c
00000060: a9c9 21bd 95c4 a4bc 7ed0 63bd 3397 d63d
00000070: 86fa 85bd 429d d7bd 5a42 ea3c 85c3 e63d
00000080: c8e8 ad3d c894 1a3d 853b d3bd 9077 02be
00000090: 5c2e 6d3c c6bd 07bd b9fa 3e3d aeb9 1b3d
000000a0: 4b32 e33c dbff 51bd 4e64 9bbd dc02 85bd
000000b0: 8d62 2bbe 4b08 253d acc2 2bbe 5613 9fbd
000000c0: f8eb ae3d 7397 0abe 596d 78bd ac6d 063c
000000d0: 9880 683d a3cc 923c b533 4abd 76a3 ccbd
000000e0: e56f 8cbc b5d8 11bd 2c68 4ebd 84d7 07be
000000f0: f4a4 273e 720d c7ba 49f4 3a3d 66f2 10bd
00000100: 2a84 bdbd 167d ac3c 0938 62bd 4377 8b3b
00000110: 85a5 383c 726a 59bb ac14 1ebe 32f9 03be
00000120: d024 08be e553 02be d36d 61bd d017 ddbd
00000130: 79bf 80bd 1cfe 40bd 2c57 a63d 199c 8f3c
00000140: e2a6 363e dfa3 23bd 6d17 703d 8206 443d
00000150: b512 47bc b98b e9bd 95da 06be 0c52 08be
00000160: d503 14be 11c6 963c bc56 263d 0a12 653d
00000170: b8b1 e13d 1656 bebd 8ec4 ccbd a797 e93d
00000180: 6e86 09be d00f fb3c e115 9ebd 69e2 d6bd
00000190: cedc 20be 7eea 6dbe d65c ebbb f885 933b
000001a0: 4f08 643d c705 953d 2918 1b3e b414 353e
000001b0: 4fa7 1f3e 89b6 ac3c 0096 1dbd c8e1 c83d
000001c0: 07a9 f83c c0a4 01bd aa3a eebb b8aa 233e
000001d0: d873 7b3d c8b4 ad3d b2b8 d73d 3c8c e7bd
000001e0: 14b4 443d d0a2 c53d a2c7 c2bd b848 48bb
000001f0: 806e 07be f767 a3bd a186 a0bc f7fb f33c
00000200: 69d9 68bd a7ee d93d 6434 b33c cedc 10be
00000210: 1d56 0538 59bc 443d 585d 98bd 1797 483d
00000220: 47e2 02bd fc17 9b3d 6dbb 473c da06 a93d
00000230: ce7e e5bc 3c84 743b 50db e23d eccd b1bc
00000240: 14ab 1ebd d02d 763d b2ce f23c 9a3b fcbd
00000250: 4468 9d3d 7f97 bd3c fafd e4bc 3b59 62bd
00000260: f6d0 c8bd a466 2dbd d6bf d4bc e34b 09bb
00000270: fe8c e4bc 6873 8abd c211 19bc ba66 79bc
00000280: dada a3bc 6641 d23d b67f cc3c 9f4b 083e
00000290: eecd e03d dbce 1f3e cc12 12bd 9cc8 d23d
000002a0: f601 6fbc 6cc1 efbc 550d 413d 2e90 833e
000002b0: a7bf 633d ad32 923d e2f3 323e 0c83 27bd
000002c0: cff7 0c3e 8b8b 4dbd 197d 00be 9fb6 55bd
000002d0: 059b 84bd b754 843d f5bd 863b e20e 363b
000002e0: e24d 96bd 02eb 10be 45ab 0cbe 135d 78bc
000002f0: bab9 243d 741b e1bd 6ada 05bd d27d b7bd
00000300: f6f5 e43c 0850 15be a258 0f3b 765e b63d
00000310: 547d 873d 6bdd b73d 5d43 f23d db5f a13c
00000320: 19d1 203e dc0f 403e c44b 353e 9361 0d3e
00000330: 2513 893d a9f5 553c 3e9d 0cbe ae9c 493d
00000340: 4f2e 533d d5ca d63b 9df3 12bd b278 f33d
00000350: ada9 073e 5118 6abc 6af9 dd3d 9d60 a4bd
00000360: 8e41 31bd 0657 00be 3239 99bd 8c05 56be
00000370: 767e afbd efa1 45bd 9be3 1fbc 1b11 abbd
00000380: 57bb 86bd dfea 3fbd ae35 edbc fe46 5bbc
00000390: 4dde 53bd cf25 b33c 3210 56bd c285 c73d
000003a0: e417 053d 143d cc3d a847 023e c8bf 1e3d
000003b0: 008a b23d 4e42 a23d c1f0 3bbd f4a8 aa3c
000003c0: 9d68 51bd 2132 4bbd 9b67 c73b 903a 57bd
000003d0: fe87 7d3c 970b 4bbc 8a73 a0bb 9e32 30bd
000003e0: 81f8 4e3d a40e 09bc 8032 8ebc 991a f5bc
000003f0: 3ab9 65bd 40ce d1bc 7247 55bd c976 703a
0.11731583 0.089407094 0.15505059 0.0560688 0.03899962 0.13538271 0.082681105 0.009761619
-0.006074555 -0.0013695393 -0.15663612 0.017135745 -0.053051375 0.044247415 -0.09293231 -0.112066984
0.07304195 -0.08310184 0.060057286 0.040673006 -0.029316762 -0.07326374 -0.017712023 0.025827538
-0.03949896 -0.020113269 -0.055618756 0.10478058 -0.06541924 -0.105280414 0.028596092 0.11267761
0.08491665 0.037739545 -0.10314087 -0.12740922 0.014476385 -0.033139966 0.046625827 0.038018875
0.027733942 -0.051269393 -0.07587491 -0.06494686 -0.16736813 0.040291112 -0.1677348 -0.0776736
0.08541101 -0.13534336 -0.060651157 0.008204859 0.05676326 0.017919844 -0.049365718 -0.09992115
-0.0171432 -0.03560706 -0.050392315 -0.13265806 0.16371518 -0.0015186502 0.045643125 -0.03538742
-0.09253724 0.02105574 -0.05522922 0.0042561605 0.011269932 -0.0033175019 -0.15437573 -0.12888029
-0.13295293 -0.12727316 -0.055036377 -0.107955575 -0.062865205 -0.047117338 0.081220955 0.017530488
0.17837098 -0.0399512 0.05861609 0.04785777 -0.012150456 -0.11403603 -0.1316932 -0.13312548
-0.14454587 0.018404992 0.04061006 0.055925407 0.11020225 -0.09293763 -0.09998427 0.114058785
-0.13430187 0.030647188 -0.07719017 -0.10492403 -0.1570923 -0.23233983 -0.0071826978 0.0045020543
0.055671986 0.072764926 0.15145935 0.17683679 0.15591167 0.021083133 -0.03847313 0.09808689
0.030354036 -0.03165126 -0.007270177 0.15983093 0.061389774 0.08481747 0.10533275 -0.113060445
0.0480233 0.09650195 -0.09510733 -0.0030560922 -0.13225746 -0.07978814 -0.019595446 0.029783232
-0.056847963 0.106412224 0.021875568 -0.1414673 3.178987e-05 0.048031185 -0.07439679 0.048972216
-0.031954076 0.07572934 0.012190682 0.0825326 -0.028014567 0.0037310263 0.11076987 -0.021704637
-0.03873737 0.060102284 0.029639576 -0.123160556 0.07685903 0.023143528 -0.027953137 -0.055260878
-0.09805481 -0.042334214 -0.02597038 -0.0020949773 -0.027899262 -0.06760293 -0.009342613 -0.015222246
-0.020001817 0.1026638 0.024963241 0.13310097 0.10976778 0.15606253 -0.035662457 0.102921695
-0.01458787 -0.029267035 0.047131855 0.25695938 0.055602696 0.07138572 0.17475846 -0.04089646
0.13766406 -0.050181907 -0.12547721 -0.052176114 -0.0647488 0.064614706 0.004112 0.0027779867
-0.07339074 -0.14152148 -0.13737209 -0.015158909 0.040216185 -0.109915644 -0.032679 -0.08959545
0.027949315 -0.14581311 0.0021872898 0.08904736 0.06615701 0.08977779 0.11829255 0.019699028
0.15704764 0.1875605 0.17704684 0.13806753 0.06693105 0.013059058 -0.13731858 0.049221687
0.051557835 0.006554941 -0.03587686 0.11888255 0.1324832 -0.014288024 0.108385876 -0.0802624
-0.04327541 -0.12533197 -0.07481612 -0.20900553 -0.085690424 -0.048250135 -0.009758855 -0.08352872
-0.06578701 -0.04685485 -0.02895626 -0.013383625 -0.051725674 0.021868614 -0.05226154 0.09742309
0.032493487 0.09972587 0.12722647 0.038757116 0.08717728 0.07922803 -0.045883898 0.020832516
-0.051125158 -0.049608354 0.006085349 -0.052546084 0.015474318 -0.0123929 -0.004896586 -0.043017022
0.05052996 -0.008365307 -0.017358065 -0.02991991 -0.05608485 -0.025611043 -0.05207009 0.0009172974

conv2.bias f4 [12]
00000000: 0b92 4b3e d5eb 763c 1c6f 8a3e a082 973e
00000010: b269 f23d 2bf9 a93d 112b 863d 3817 1e3e
00000020: 1d23 643e a470 733d 2359 36bd 17cb 143e
0.1987993 0.015070875 0.27037895 0.29591846 0.11836566 0.08299478 0.06551183 0.15438545
0.2227902 0.059433594 -0.0445186 0.14530598

fc.weight f4 [4, 120]
00000000: e062 16bc 7dbf febc 4e72 183d 8c21 8dbd
00000010: 71b4 8cbd 153e 63bd f44b 893b 80e4 293d
00000020: 9f6e b3bb 98f4 1a3d 034d b93d d773 283e
00000030: e97d 823d 6a16 193e 394f 373d 8568 a83d
00000040: e1c7 0e3e d02e 123e e1b0 e83d 2077 9d3d
00000050: 5843 aabc e388 c6bd 9f83 27be a5ff 51be
00000060: 9232 b9bd 4715 2dbe 8fc7 46be b248 0bbe
00000070: c8c6 47be 4695 cdbd 4250 eabd a01c 00bd
00000080: 6c1e 4abd ef66 00be 76d2 8bbd 585e c9bd
00000090: ee40 42bc a8b9 17bd ef73 b5bd ef1a 833c
000000a0: 3419 ecbd f007 f1bd 0328 11be 02bb cebd
000000b0: 4610 75bd dcd5 b3bd bfe7 42be 30a2 1bbe
000000c0: 5abb 6cbe 07fa 49bd 448a 1b3e 6acc 073e
000000d0: c72b 153e a1ca c63d 521f ab3d 1af6 603d
000000e0: fff4 193e 97ba b33d 2132 093e 89bf c43d
000000f0: 4725 7c3d 2441 bdbd c277 67bd 8588 76bd
00000100: a616 4f3b 750a 89bd 55b8 93bd 40d5 89bc
00000110: 0858 92bd a44c b7ba f9a7 95bd 6232 3bbe
00000120: b83a 02be 043a 21be bbb2 26be 4743 fabd
00000130: 0997 35be 3a41 17be 9623 55be dc2a 8cbd
00000140: 1282 fa3d 15c2 253e f601 bc3d 4025 153e
00000150: 1445 ed3d d4b6 113e 0481 1c3e c834 c23d
00000160: c8ae 383e 0f55 923d 1992 ccbd 7bb4 ecbd
00000170: f74c 83bd 664a acbc ffc7 3bbc 03bd debd
00000180: a315 89bd 81fb 11bd cf34 5fbd a98c abbd
00000190: c5fc a0bc 4fb8 07be 8f18 c4bd a6ca b2bd
000001a0: 560d 0bbe 93f0 cabd 638f 1abe 3dff acbd
000001b0: 9677 25bc 3b9a 77bd 42ec 013e f1e4 0e3e
000001c0: 3dfc 803d 2f09 8a3d c1b1 273c 40de 963d
000001d0: ec78 4b3d ca8c 2b3e ed7e 2e3e 8dbc c23d
000001e0: 913a 98bd 380c 29be 3c26 16bd 1da1 86bc
000001f0: 9b23 86bd 377b 94bb 271a 2cbe 8204 1dbd
00000200: 6f87 18bd 7b8b abbd e335 de3d 0bc0 383e
00000210: 1f81 a43d df1d 133e 4ded 7c3d 57ef ae3d
00000220: 785a 0c3e 70be f03d a978 de3d dba9 903d
00000230: 172f 9dbc df53 ccbd 6719 11be ae4b 7cbd
00000240: 81d2 09bd 107a debd 2847 bfbd 334b 5ebd
00000250: a51b f0bd a0bc d5bd 2e83 72be b0a2 bcbd
00000260: 5e3f d3bd 4534 36be 7284 13be 61e8 15be
00000270: a4e2 0ebe 1aba 9ebd 912f 26be 77d9 01be
00000280: 9956 c83c bcba b93d 47c9 1e3b e345 a33d
00000290: 2a43 813c f3e0 cf3d ab56 963d 8aa1 363d
000002a0: 7e4e 3a3c db72 d4bc 3660 023e 6f3f 083e
000002b0: 4191 f33d d8a6 9f3d d38f cc3d c0cc a93d
000002c0: dc84 e13d 1cbe 913c 459d d13d c3e2 f33d
000002d0: 6b2a ed3d fb48 e43c a47e 403e 8e92 563d
000002e0: 5ad8 9f3d af43 b73d 9c3e 11bd c24a 593e
000002f0: 454a 143e a301 6e3d d1d7 423d ea2c e53d
00000300: d9fa da3d e805 1a3e 5e23 bd3d 9665 083d
00000310: 579e 333d a837 c03d ef9b fe3d 4e70 d63d
00000320: d6d0 d5bd 473d 11be ddef 76be 56bf 6abe
00000330: 42c6 68be 590e 0cbe 534e f4bd 0a73 64be
00000340: 8f8e 6dbe 1ec5 20be 70ff 1ebe 716f 0cbe
00000350: c3ce 82bd 2b2b 99bd b745 36bd de6c 4bbe
00000360: 0b46 3fbd 955b a9bc b626 7abd 24c3 ffbd
00000370: 9e1a 153e 0700 493e c721 023e df14 433e
00000380: fe8d 1a3e a7d1 ef3d 156b c83d 89be 883d
00000390: 382c 6b3e 2363 733e 9786 7bbd c86f 5dbd
000003a0: ff65 04be 5b27 17be 506b f7bd 82fa 03be
000003b0: 1340 a3bd 6db5 5dbd 1dc5 dabd 7a87 e7bc
000003c0: 0997 2a3e 4329 903b 0ee6 323d 97ae f63d
000003d0: b69f 283d 035f ba3d 22b2 48bd 8714 20bd
000003e0: e7c2 b63d 5d85 79bc db4b 48be 5a08 5bbe
000003f0: f034 8ebe 1f08 4ebe 4865 30be d1c4 0fbe
-0.009178847 -0.031097168 0.037218384 -0.06891164 -0.06870354 -0.055479128 0.0041899625 0.04147768
-0.0054758335 0.03783092 0.09047892 0.1645044 0.06371672 0.14949957 0.044753287 0.082230605
0.13943435 0.1427567 0.11361862 0.07688737 -0.020784065 -0.09694078 -0.16358803 -0.20507677
-0.09042849 -0.16902648 -0.19412063 -0.1360195 -0.19509423 -0.10038237 -0.11441089 -0.0312773
-0.04934542 -0.12539266 -0.068272516 -0.09832448 -0.011856301 -0.03704229 -0.08860003 0.016004054
-0.115282446 -0.11769092 -0.1417542 -0.10094263 -0.059829973 -0.08781025 -0.19033717 -0.15198588
-0.23118344 -0.04931071 0.15189463 0.13261572 0.14567481 0.09706617 0.08355583 0.0549222
0.15034865 0.087758236 0.13398029 0.09606845 0.061558988 -0.0924094 -0.056510694 -0.06018879
0.0031599193 -0.06691448 -0.07212893 -0.016825318 -0.07145697 -0.0013984633 -0.07307429 -0.18280938
-0.12717712 -0.15744787 -0.16279118 -0.122198634 -0.17733397 -0.14770976 -0.20814356 -0.06844112
0.1223184 0.16187318 0.091800615 0.14564991 0.11585441 0.142299 0.1528359 0.094827235
0.18035424 0.0714513 -0.099888034 -0.115578614 -0.06411164 -0.02103157 -0.011461257 -0.10875895
-0.0669358 -0.035640243 -0.05449372 -0.08376438 -0.01965178 -0.13253902 -0.09574997 -0.08730058
-0.13579306 -0.09909167 -0.1509376 -0.0844712 -0.010099312 -0.06044982 0.12687781 0.13954522
0.06298111 0.06740033 0.010235251 0.073666096 0.049675867 0.16752926 0.17040606 0.095086195
-0.07433046 -0.16508567 -0.036657557 -0.016434247 -0.0654976 -0.00453129 -0.16806851 -0.038334377
-0.037238535 -0.08376213 0.10850122 0.18042009 0.080324404 0.14366864 0.061749745 0.08541744
0.13706386 0.11755073 0.10862858 0.07063647 -0.019187493 -0.09976935 -0.14169846 -0.06159561
-0.033648018 -0.10863125 -0.09339744 -0.054270934 -0.11724023 -0.10436368 -0.23682854 -0.09210718
-0.10314821 -0.17793377 -0.14405993 -0.14639427 -0.13953644 -0.0775034 -0.16229083 -0.12680613
0.024455355 0.0906882 0.0024228857 0.07972314 0.015779097 0.101503275 0.07340749 0.04458765
0.011371253 -0.025933674 0.12732014 0.13305448 0.11892939 0.07795495 0.0998837 0.08291006
0.11011669 0.017790847 0.10235075 0.11908486 0.11580356 0.027866831 0.1879831 0.05238586
0.07804938 0.089484565 -0.0354601 0.21219924 0.14481457 0.05810703 0.0475691 0.11190207
0.10692377 0.15041316 0.092352614 0.033300005 0.043852177 0.093856156 0.12432086 0.10470639
-0.10440223 -0.14183532 -0.24114938 -0.22924551 -0.2273188 -0.13677348 -0.11929002 -0.22309509
-0.23198913 -0.15700194 -0.15527129 -0.13714387 -0.06387093 -0.07478937 -0.04450008 -0.19865748
-0.046697658 -0.020673553 -0.061072074 -0.12488392 0.14560935 0.19628917 0.12708198 0.1905093
0.15093228 0.1170991 0.09786049 0.06676967 0.22966087 0.23768286 -0.06140765 -0.05406168
-0.12929533 -0.14761107 -0.12081015 -0.1288853 -0.079712056 -0.0541281 -0.106821276 -0.028262842
0.16659178 0.00439945 0.04367643 0.12045019 0.041167937 0.09100153 -0.048998006 -0.039082076
0.089238934 -0.01522955 -0.19560187 -0.21389905 -0.27774763 -0.20120285 -0.17226136 -0.14039923

fc.bias f4 [4]
00000000: 2658 8fbd c235 293c e082 cc3d 6804 b03d
-0.06999235 0.010327758 0.099859 0.085945904

45 f4 [32, 1]
00000000: d8fa 823f 6f56 6a3f 65c3 823f 316a 2f3f
00000010: 203e 933f cb4e 303f 3f22 5c3f dcfc 723f
00000020: 7cba 7e3f d98e 733f 5bf4 7f3f 9e16 3b3f
00000030: 328e 543f 24a3 633f 0aa0 613f 39b7 9b3f
00000040: 2c34 8b3f 2c2e 793f 09a9 6c3f a60e 7b3f
00000050: df26 583f 7dd7 743f 0846 703f 2f88 a13f
00000060: 4c30 903f af00 723f fd7c 553f 9bc4 713f
00000070: 4c27 853f 0261 423f db83 753f 3f6b 873f
1.0232801 0.9153814 1.021588 0.6852141 1.1503334 0.6887023 0.85989755 0.9491708
0.995033 0.95139843 0.9998223 0.73081386 0.8302947 0.8892081 0.88134825 1.216529
1.0875297 0.9733608 0.9244543 0.98069227 0.8443431 0.9564131 0.9385686 1.2619685
1.1264739 0.94532293 0.8339384 0.9444062 1.0402617 0.7592927 0.9590432 1.0579604

46 f4 [32, 1]
00000000: 4e18 dd3d 352f d53d 5ca1 e9bd 4006 2ebd
00000010: a603 113e 85c3 8e3d a465 babc b66f e93c
00000020: ca69 42bd 8056 9dbd 2bc8 8cbc 7b2f 9a3d
00000030: bd89 31bc 26ba 54bc c3a0 a63c e4f3 0a3e
00000040: 25c0 2f3e d7ed c43c 53d6 9d3d f261 2e3c
00000050: 1fee e3bd c6af 25bd 023d 3dbd 44e0 4a3e
00000060: bae7 2a3e b6f8 643c 46a2 c4bd 2b3e b0bb
00000070: e36d 193e 8994 febd 9cdb 343d fe07 de3c
0.107956514 0.10409395 -0.1140773 -0.04248643 0.14161548 0.06970886 -0.022753544 0.02849565
-0.04746417 -0.07682514 -0.017185291 0.075285874 -0.010836062 -0.012983834 0.020340329 0.135696
0.17163141 0.024039192 0.07706895 0.010643469 -0.11129402 -0.040450834 -0.04620076 0.19812113
0.16689959 0.013975313 -0.09601264 -0.0053785047 0.14983325 -0.124306746 0.04415475 0.02710342

47 f4 [12, 1]
00000000: 6fca 993f 9c60 c83f 6f8e ab3f ce27 b13f
00000010: 166f a93f 6cfa b53f 4355 9e3f e9ed ca3f
00000020: 7d50 c63f 77a6 b43f 1fb5 a73f a421 b73f
1.2014903 1.5654483 1.3402842 1.3840272 1.3237026 1.4217048 1.236977 1.5853854
1.5493313 1.4113301 1.3102149 1.4307141

48 f4 [12, 1]
00000000: 7695 f63d 7b75 eebd 66d1 cf3d f566 063e
00000010: 6546 2b3e 66fc 0fbd 6905 893d af89 e4bc
00000020: 160c 443d bc6b bdbc 2592 12be 350e b7bd
0.12040226 -0.11643501 0.101473615 0.13125212 0.16726072 -0.035152815 0.06690485 -0.027897684
0.04786309 -0.02312266 -0.14313562 -0.08938257
